…
       'hometown', 'residence', 'creativeID', 'adID', 'camgaignID',
       'advertiserID', 'appID', 'appPlatform', 'positionID', 'sitesetID',
       'positionType', 'clickTime_d', 'clickTime_h', 'clickTime_m',
       'connectionType', 'telecomsOperator', 'label'],
      dtype='object')
Max feature: 2805119
____________________________________________________________________________________________________
Layer (type)                     Output Shape          Param #     Connected to                     
====================================================================================================
input_1 (InputLayer)             (None, 1)             0                                            
____________________________________________________________________________________________________
input_2 (InputLayer)             (None, 1)             0                                            
____________________________________________________________________________________________________
input_3 (InputLayer)             (None, 1)             0                                            
____________________________________________________________________________________________________
input_4 (InputLayer)             (None, 1)             0                                            
____________________________________________________________________________________________________
input_5 (InputLayer)             (None, 1)             0                                            
____________________________________________________________________________________________________
input_6 (InputLayer)             (None, 1)             0                                            
____________________________________________________________________________________________________
input_7 (InputLayer)             (None, 1)             0                                            
____________________________________________________________________________________________________
input_8 (InputLayer)             (None, 1)             0                                            
____________________________________________________________________________________________________
input_9 (InputLayer)             (None, 1)             0                                            
____________________________________________________________________________________________________
input_10 (InputLayer)            (None, 1)             0                                            
____________________________________________________________________________________________________
input_11 (InputLayer)            (None, 1)             0                                            
____________________________________________________________________________________________________
input_12 (InputLayer)            (None, 1)             0                                            
____________________________________________________________________________________________________
input_13 (InputLayer)            (None, 1)             0                                            
____________________________________________________________________________________________________
input_14 (InputLayer)            (None, 1)             0                                            
____________________________________________________________________________________________________
input_15 (InputLayer)            (None, 1)             0                                            
____________________________________________________________________________________________________
input_16 (InputLayer)            (None, 1)             0                                            
____________________________________________________________________________________________________
input_17 (InputLayer)            (None, 1)             0                                            
____________________________________________________________________________________________________
input_18 (InputLayer)            (None, 1)             0                                            
____________________________________________________________________________________________________
input_19 (InputLayer)            (None, 1)             0                                            
____________________________________________________________________________________________________
input_20 (InputLayer)            (None, 1)             0                                            
____________________________________________________________________________________________________
input_21 (InputLayer)            (None, 1)             0                                            
____________________________________________________________________________________________________
input_22 (InputLayer)            (None, 1)             0                                            
____________________________________________________________________________________________________
embedding_1 (Embedding)          (None, 1, 25)         70127950    input_1[0][0]                    
____________________________________________________________________________________________________
embedding_2 (Embedding)          (None, 1, 7)          560         input_2[0][0]                    
____________________________________________________________________________________________________
embedding_3 (Embedding)          (None, 1, 1)          2           input_3[0][0]                    
____________________________________________________________________________________________________
embedding_4 (Embedding)          (None, 1, 3)          21          input_4[0][0]                    
____________________________________________________________________________________________________
embedding_5 (Embedding)          (None, 1, 1)          3           input_5[0][0]                    
____________________________________________________________________________________________________
embedding_6 (Embedding)          (None, 1, 3)          18          input_6[0][0]                    
____________________________________________________________________________________________________
embedding_7 (Embedding)          (None, 1, 14)         47614       input_7[0][0]                    
____________________________________________________________________________________________________
embedding_8 (Embedding)          (None, 1, 14)         47614       input_8[0][0]                    
____________________________________________________________________________________________________
embedding_9 (Embedding)          (None, 1, 15)         98730       input_9[0][0]                    
____________________________________________________________________________________________________
embedding_10 (Embedding)         (None, 1, 14)         50624       input_10[0][0]                   
____________________________________________________________________________________________________
embedding_11 (Embedding)         (None, 1, 11)         7920        input_11[0][0]                   
____________________________________________________________________________________________________
embedding_12 (Embedding)         (None, 1, 7)          637         input_12[0][0]                   
____________________________________________________________________________________________________
embedding_13 (Embedding)         (None, 1, 10)         4720        input_13[0][0]                   
____________________________________________________________________________________________________
embedding_14 (Embedding)         (None, 1, 1)          2           input_14[0][0]                   
____________________________________________________________________________________________________
embedding_15 (Embedding)         (None, 1, 15)         114675      input_15[0][0]                   
____________________________________________________________________________________________________
embedding_16 (Embedding)         (None, 1, 1)          2           input_16[0][0]                   
____________________________________________________________________________________________________
embedding_17 (Embedding)         (None, 1, 2)          10          input_17[0][0]                   
____________________________________________________________________________________________________
embedding_18 (Embedding)         (None, 1, 5)          150         input_18[0][0]                   
____________________________________________________________________________________________________
embedding_19 (Embedding)         (None, 1, 5)          115         input_19[0][0]                   
____________________________________________________________________________________________________
embedding_20 (Embedding)         (None, 1, 7)          413         input_20[0][0]                   
____________________________________________________________________________________________________
embedding_21 (Embedding)         (None, 1, 2)          8           input_21[0][0]                   
____________________________________________________________________________________________________
embedding_22 (Embedding)         (None, 1, 1)          3           input_22[0][0]                   
____________________________________________________________________________________________________
flatten_1 (Flatten)              (None, 25)            0           embedding_1[0][0]                
____________________________________________________________________________________________________
flatten_2 (Flatten)              (None, 7)             0           embedding_2[0][0]                
____________________________________________________________________________________________________
flatten_3 (Flatten)              (None, 1)             0           embedding_3[0][0]                
____________________________________________________________________________________________________
flatten_4 (Flatten)              (None, 3)             0           embedding_4[0][0]                
____________________________________________________________________________________________________
flatten_5 (Flatten)              (None, 1)             0           embedding_5[0][0]                
____________________________________________________________________________________________________
flatten_6 (Flatten)              (None, 3)             0           embedding_6[0][0]                
____________________________________________________________________________________________________
flatten_7 (Flatten)              (None, 14)            0           embedding_7[0][0]                
____________________________________________________________________________________________________
flatten_8 (Flatten)              (None, 14)            0           embedding_8[0][0]                
____________________________________________________________________________________________________
flatten_9 (Flatten)              (None, 15)            0           embedding_9[0][0]                
____________________________________________________________________________________________________
flatten_10 (Flatten)             (None, 14)            0           embedding_10[0][0]               
____________________________________________________________________________________________________
flatten_11 (Flatten)             (None, 11)            0           embedding_11[0][0]               
____________________________________________________________________________________________________
flatten_12 (Flatten)             (None, 7)             0           embedding_12[0][0]               
____________________________________________________________________________________________________
flatten_13 (Flatten)             (None, 10)            0           embedding_13[0][0]               
____________________________________________________________________________________________________
flatten_14 (Flatten)             (None, 1)             0           embedding_14[0][0]               
____________________________________________________________________________________________________
flatten_15 (Flatten)             (None, 15)            0           embedding_15[0][0]               
____________________________________________________________________________________________________
flatten_16 (Flatten)             (None, 1)             0           embedding_16[0][0]               
____________________________________________________________________________________________________
flatten_17 (Flatten)             (None, 2)             0           embedding_17[0][0]               
____________________________________________________________________________________________________
flatten_18 (Flatten)             (None, 5)             0           embedding_18[0][0]               
____________________________________________________________________________________________________
flatten_19 (Flatten)             (None, 5)             0           embedding_19[0][0]               
____________________________________________________________________________________________________
flatten_20 (Flatten)             (None, 7)             0           embedding_20[0][0]               
____________________________________________________________________________________________________
flatten_21 (Flatten)             (None, 2)             0           embedding_21[0][0]               
____________________________________________________________________________________________________
flatten_22 (Flatten)             (None, 1)             0           embedding_22[0][0]               
____________________________________________________________________________________________________
concatenate_1 (Concatenate)      (None, 164)           0           flatten_1[0][0]                  
                                                                   flatten_2[0][0]                  
                                                                   flatten_3[0][0]                  
                                                                   flatten_4[0][0]                  
                                                                   flatten_5[0][0]                  
…
