…
--- Max column ui features: [210   2   6  25 183  36 113  80  64  44  84  81  11 124  31  50 132  39
 150 202  69  89  18  62  31  40  98   1]
--- Selected most important features: 24
Using fine-grained embedding layers
[32, 30, 28, 26, 24, 22, 20, 18, 16, 14, 12, 10, 8, 6, 4, 2, 2, 2, 2, 2, 2, 2, 2, 2]
____________________________________________________________________________________________________
Layer (type)                     Output Shape          Param #     Connected to                     
====================================================================================================
input_3 (InputLayer)             (None, 1)             0                                            
____________________________________________________________________________________________________
input_4 (InputLayer)             (None, 1)             0                                            
____________________________________________________________________________________________________
input_5 (InputLayer)             (None, 1)             0                                            
____________________________________________________________________________________________________
input_6 (InputLayer)             (None, 1)             0                                            
____________________________________________________________________________________________________
input_7 (InputLayer)             (None, 1)             0                                            
____________________________________________________________________________________________________
input_8 (InputLayer)             (None, 1)             0                                            
____________________________________________________________________________________________________
input_9 (InputLayer)             (None, 1)             0                                            
____________________________________________________________________________________________________
input_10 (InputLayer)            (None, 1)             0                                            
____________________________________________________________________________________________________
input_11 (InputLayer)            (None, 1)             0                                            
____________________________________________________________________________________________________
input_12 (InputLayer)            (None, 1)             0                                            
____________________________________________________________________________________________________
input_13 (InputLayer)            (None, 1)             0                                            
____________________________________________________________________________________________________
input_14 (InputLayer)            (None, 1)             0                                            
____________________________________________________________________________________________________
input_15 (InputLayer)            (None, 1)             0                                            
____________________________________________________________________________________________________
input_16 (InputLayer)            (None, 1)             0                                            
____________________________________________________________________________________________________
input_17 (InputLayer)            (None, 1)             0                                            
____________________________________________________________________________________________________
input_18 (InputLayer)            (None, 1)             0                                            
____________________________________________________________________________________________________
input_19 (InputLayer)            (None, 1)             0                                            
____________________________________________________________________________________________________
input_20 (InputLayer)            (None, 1)             0                                            
____________________________________________________________________________________________________
input_21 (InputLayer)            (None, 1)             0                                            
____________________________________________________________________________________________________
input_22 (InputLayer)            (None, 1)             0                                            
____________________________________________________________________________________________________
input_23 (InputLayer)            (None, 1)             0                                            
____________________________________________________________________________________________________
input_24 (InputLayer)            (None, 1)             0                                            
____________________________________________________________________________________________________
input_25 (InputLayer)            (None, 1)             0                                            
____________________________________________________________________________________________________
input_26 (InputLayer)            (None, 1)             0                                            
____________________________________________________________________________________________________
input_27 (InputLayer)            (None, 1)             0                                            
____________________________________________________________________________________________________
input_28 (InputLayer)            (None, 1)             0                                            
____________________________________________________________________________________________________
input_29 (InputLayer)            (None, 1)             0                                            
____________________________________________________________________________________________________
input_30 (InputLayer)            (None, 1)             0                                            
____________________________________________________________________________________________________
input_31 (InputLayer)            (None, 1)             0                                            
____________________________________________________________________________________________________
input_32 (InputLayer)            (None, 1)             0                                            
____________________________________________________________________________________________________
input_33 (InputLayer)            (None, 1)             0                                            
____________________________________________________________________________________________________
input_34 (InputLayer)            (None, 1)             0                                            
____________________________________________________________________________________________________
input_35 (InputLayer)            (None, 1)             0                                            
____________________________________________________________________________________________________
input_36 (InputLayer)            (None, 1)             0                                            
____________________________________________________________________________________________________
input_37 (InputLayer)            (None, 1)             0                                            
____________________________________________________________________________________________________
input_38 (InputLayer)            (None, 1)             0                                            
____________________________________________________________________________________________________
input_39 (InputLayer)            (None, 1)             0                                            
____________________________________________________________________________________________________
input_40 (InputLayer)            (None, 1)             0                                            
____________________________________________________________________________________________________
input_41 (InputLayer)            (None, 1)             0                                            
____________________________________________________________________________________________________
input_42 (InputLayer)            (None, 1)             0                                            
____________________________________________________________________________________________________
input_43 (InputLayer)            (None, 1)             0                                            
____________________________________________________________________________________________________
input_44 (InputLayer)            (None, 1)             0                                            
____________________________________________________________________________________________________
input_45 (InputLayer)            (None, 1)             0                                            
____________________________________________________________________________________________________
input_46 (InputLayer)            (None, 1)             0                                            
____________________________________________________________________________________________________
input_47 (InputLayer)            (None, 1)             0                                            
____________________________________________________________________________________________________
input_48 (InputLayer)            (None, 1)             0                                            
____________________________________________________________________________________________________
input_49 (InputLayer)            (None, 1)             0                                            
____________________________________________________________________________________________________
input_50 (InputLayer)            (None, 1)             0                                            
____________________________________________________________________________________________________
input_51 (InputLayer)            (None, 1)             0                                            
____________________________________________________________________________________________________
input_52 (InputLayer)            (None, 1)             0                                            
____________________________________________________________________________________________________
input_53 (InputLayer)            (None, 1)             0                                            
____________________________________________________________________________________________________
input_54 (InputLayer)            (None, 1)             0                                            
____________________________________________________________________________________________________
input_55 (InputLayer)            (None, 1)             0                                            
____________________________________________________________________________________________________
input_56 (InputLayer)            (None, 1)             0                                            
____________________________________________________________________________________________________
input_57 (InputLayer)            (None, 1)             0                                            
____________________________________________________________________________________________________
input_58 (InputLayer)            (None, 1)             0                                            
____________________________________________________________________________________________________
input_59 (InputLayer)            (None, 1)             0                                            
____________________________________________________________________________________________________
input_60 (InputLayer)            (None, 1)             0                                            
____________________________________________________________________________________________________
input_61 (InputLayer)            (None, 1)             0                                            
____________________________________________________________________________________________________
input_62 (InputLayer)            (None, 1)             0                                            
____________________________________________________________________________________________________
input_63 (InputLayer)            (None, 1)             0                                            
____________________________________________________________________________________________________
input_64 (InputLayer)            (None, 1)             0                                            
____________________________________________________________________________________________________
input_65 (InputLayer)            (None, 1)             0                                            
____________________________________________________________________________________________________
input_66 (InputLayer)            (None, 1)             0                                            
____________________________________________________________________________________________________
input_67 (InputLayer)            (None, 1)             0                                            
____________________________________________________________________________________________________
input_68 (InputLayer)            (None, 1)             0                                            
____________________________________________________________________________________________________
input_69 (InputLayer)            (None, 1)             0                                            
____________________________________________________________________________________________________
input_70 (InputLayer)            (None, 1)             0                                            
____________________________________________________________________________________________________
input_71 (InputLayer)            (None, 1)             0                                            
____________________________________________________________________________________________________
input_72 (InputLayer)            (None, 1)             0                                            
____________________________________________________________________________________________________
input_73 (InputLayer)            (None, 1)             0                                            
____________________________________________________________________________________________________
input_74 (InputLayer)            (None, 1)             0                                            
____________________________________________________________________________________________________
input_75 (InputLayer)            (None, 1)             0                                            
____________________________________________________________________________________________________
input_76 (InputLayer)            (None, 1)             0                                            
____________________________________________________________________________________________________
input_77 (InputLayer)            (None, 1)             0                                            
____________________________________________________________________________________________________
input_78 (InputLayer)            (None, 1)             0                                            
____________________________________________________________________________________________________
input_79 (InputLayer)            (None, 1)             0                                            
____________________________________________________________________________________________________
input_80 (InputLayer)            (None, 1)             0                                            
____________________________________________________________________________________________________
input_81 (InputLayer)            (None, 1)             0                                            
____________________________________________________________________________________________________
input_82 (InputLayer)            (None, 1)             0                                            
____________________________________________________________________________________________________
embedding_1 (Embedding)          (None, 1, 32)         16128       input_3[0][0]                    
____________________________________________________________________________________________________
embedding_2 (Embedding)          (None, 1, 30)         229380      input_4[0][0]                    
____________________________________________________________________________________________________
embedding_3 (Embedding)          (None, 1, 28)         168         input_5[0][0]                    
____________________________________________________________________________________________________
embedding_4 (Embedding)          (None, 1, 26)         171158      input_6[0][0]                    
____________________________________________________________________________________________________
embedding_5 (Embedding)          (None, 1, 24)         11352       input_7[0][0]                    
____________________________________________________________________________________________________
embedding_6 (Embedding)          (None, 1, 22)         79574       input_8[0][0]                    
____________________________________________________________________________________________________
embedding_7 (Embedding)          (None, 1, 20)         1840        input_9[0][0]                    
____________________________________________________________________________________________________
embedding_8 (Embedding)          (None, 1, 18)         12978       input_10[0][0]                   
____________________________________________________________________________________________________
embedding_9 (Embedding)          (None, 1, 16)         48          input_11[0][0]                   
____________________________________________________________________________________________________
embedding_10 (Embedding)         (None, 1, 14)         70          input_12[0][0]                   
____________________________________________________________________________________________________
embedding_11 (Embedding)         (None, 1, 12)         40824       input_13[0][0]                   
____________________________________________________________________________________________________
embedding_12 (Embedding)         (None, 1, 10)         810         input_14[0][0]                   
____________________________________________________________________________________________________
embedding_13 (Embedding)         (None, 1, 8)          27216       input_15[0][0]                   
____________________________________________________________________________________________________
embedding_14 (Embedding)         (None, 1, 6)          42          input_16[0][0]                   
____________________________________________________________________________________________________
embedding_15 (Embedding)         (None, 1, 4)          16          input_17[0][0]                   
____________________________________________________________________________________________________
embedding_16 (Embedding)         (None, 1, 2)          6           input_18[0][0]                   
____________________________________________________________________________________________________
embedding_17 (Embedding)         (None, 1, 2)          16          input_19[0][0]                   
____________________________________________________________________________________________________
embedding_18 (Embedding)         (None, 1, 2)          48          input_20[0][0]                   
____________________________________________________________________________________________________
embedding_19 (Embedding)         (None, 1, 2)          64          input_21[0][0]                   
____________________________________________________________________________________________________
embedding_20 (Embedding)         (None, 1, 2)          16          input_22[0][0]                   
____________________________________________________________________________________________________
embedding_21 (Embedding)         (None, 1, 2)          8           input_23[0][0]                   
____________________________________________________________________________________________________
embedding_22 (Embedding)         (None, 1, 2)          6           input_24[0][0]                   
____________________________________________________________________________________________________
embedding_23 (Embedding)         (None, 1, 2)          120         input_25[0][0]                   
____________________________________________________________________________________________________
embedding_24 (Embedding)         (None, 1, 2)          5610238     input_26[0][0]                   
____________________________________________________________________________________________________
embedding_25 (Embedding)         (None, 1, 8)          1680        input_27[0][0]                   
____________________________________________________________________________________________________
embedding_26 (Embedding)         (None, 1, 8)          16          input_28[0][0]                   
____________________________________________________________________________________________________
embedding_27 (Embedding)         (None, 1, 8)          48          input_29[0][0]                   
____________________________________________________________________________________________________
embedding_28 (Embedding)         (None, 1, 8)          200         input_30[0][0]                   
____________________________________________________________________________________________________
embedding_29 (Embedding)         (None, 1, 8)          1464        input_31[0][0]                   
____________________________________________________________________________________________________
embedding_30 (Embedding)         (None, 1, 8)          288         input_32[0][0]                   
____________________________________________________________________________________________________
embedding_31 (Embedding)         (None, 1, 8)          904         input_33[0][0]                   
____________________________________________________________________________________________________
embedding_32 (Embedding)         (None, 1, 8)          640         input_34[0][0]                   
____________________________________________________________________________________________________
embedding_33 (Embedding)         (None, 1, 8)          512         input_35[0][0]                   
____________________________________________________________________________________________________
embedding_34 (Embedding)         (None, 1, 8)          352         input_36[0][0]                   
____________________________________________________________________________________________________
embedding_35 (Embedding)         (None, 1, 8)          672         input_37[0][0]                   
____________________________________________________________________________________________________
embedding_36 (Embedding)         (None, 1, 8)          648         input_38[0][0]                   
____________________________________________________________________________________________________
embedding_37 (Embedding)         (None, 1, 8)          88          input_39[0][0]                   
____________________________________________________________________________________________________
embedding_38 (Embedding)         (None, 1, 8)          992         input_40[0][0]                   
____________________________________________________________________________________________________
embedding_39 (Embedding)         (None, 1, 8)          248         input_41[0][0]                   
____________________________________________________________________________________________________
embedding_40 (Embedding)         (None, 1, 8)          400         input_42[0][0]                   
____________________________________________________________________________________________________
embedding_41 (Embedding)         (None, 1, 8)          1056        input_43[0][0]                   
____________________________________________________________________________________________________
embedding_42 (Embedding)         (None, 1, 8)          312         input_44[0][0]                   
____________________________________________________________________________________________________
embedding_43 (Embedding)         (None, 1, 8)          1200        input_45[0][0]                   
____________________________________________________________________________________________________
embedding_44 (Embedding)         (None, 1, 8)          1616        input_46[0][0]                   
____________________________________________________________________________________________________
embedding_45 (Embedding)         (None, 1, 8)          552         input_47[0][0]                   
____________________________________________________________________________________________________
embedding_46 (Embedding)         (None, 1, 8)          712         input_48[0][0]                   
____________________________________________________________________________________________________
embedding_47 (Embedding)         (None, 1, 8)          144         input_49[0][0]                   
____________________________________________________________________________________________________
embedding_48 (Embedding)         (None, 1, 8)          496         input_50[0][0]                   
____________________________________________________________________________________________________
embedding_49 (Embedding)         (None, 1, 8)          248         input_51[0][0]                   
____________________________________________________________________________________________________
embedding_50 (Embedding)         (None, 1, 8)          320         input_52[0][0]                   
____________________________________________________________________________________________________
embedding_51 (Embedding)         (None, 1, 8)          784         input_53[0][0]                   
____________________________________________________________________________________________________
embedding_52 (Embedding)         (None, 1, 8)          8           input_54[0][0]                   
____________________________________________________________________________________________________
embedding_53 (Embedding)         (None, 1, 8)          1776        input_55[0][0]                   
____________________________________________________________________________________________________
embedding_54 (Embedding)         (None, 1, 8)          16          input_56[0][0]                   
____________________________________________________________________________________________________
embedding_55 (Embedding)         (None, 1, 8)          40          input_57[0][0]                   
____________________________________________________________________________________________________
embedding_56 (Embedding)         (None, 1, 8)          176         input_58[0][0]                   
____________________________________________________________________________________________________
embedding_57 (Embedding)         (None, 1, 8)          904         input_59[0][0]                   
____________________________________________________________________________________________________
embedding_58 (Embedding)         (None, 1, 8)          344         input_60[0][0]                   
____________________________________________________________________________________________________
embedding_59 (Embedding)         (None, 1, 8)          1088        input_61[0][0]                   
____________________________________________________________________________________________________
embedding_60 (Embedding)         (None, 1, 8)          248         input_62[0][0]                   
____________________________________________________________________________________________________
embedding_61 (Embedding)         (None, 1, 8)          1528        input_63[0][0]                   
____________________________________________________________________________________________________
embedding_62 (Embedding)         (None, 1, 8)          504         input_64[0][0]                   
____________________________________________________________________________________________________
embedding_63 (Embedding)         (None, 1, 8)          232         input_65[0][0]                   
____________________________________________________________________________________________________
embedding_64 (Embedding)         (None, 1, 8)          720         input_66[0][0]                   
____________________________________________________________________________________________________
embedding_65 (Embedding)         (None, 1, 8)          40          input_67[0][0]                   
____________________________________________________________________________________________________
embedding_66 (Embedding)         (None, 1, 8)          368         input_68[0][0]                   
____________________________________________________________________________________________________
embedding_67 (Embedding)         (None, 1, 8)          168         input_69[0][0]                   
____________________________________________________________________________________________________
embedding_68 (Embedding)         (None, 1, 8)          352         input_70[0][0]                   
____________________________________________________________________________________________________
embedding_69 (Embedding)         (None, 1, 8)          784         input_71[0][0]                   
____________________________________________________________________________________________________
embedding_70 (Embedding)         (None, 1, 8)          288         input_72[0][0]                   
____________________________________________________________________________________________________
embedding_71 (Embedding)         (None, 1, 8)          496         input_73[0][0]                   
____________________________________________________________________________________________________
embedding_72 (Embedding)         (None, 1, 8)          1104        input_74[0][0]                   
____________________________________________________________________________________________________
embedding_73 (Embedding)         (None, 1, 8)          208         input_75[0][0]                   
____________________________________________________________________________________________________
embedding_74 (Embedding)         (None, 1, 8)          256         input_76[0][0]                   
____________________________________________________________________________________________________
embedding_75 (Embedding)         (None, 1, 8)          144         input_77[0][0]                   
____________________________________________________________________________________________________
embedding_76 (Embedding)         (None, 1, 8)          216         input_78[0][0]                   
____________________________________________________________________________________________________
embedding_77 (Embedding)         (None, 1, 8)          296         input_79[0][0]                   
____________________________________________________________________________________________________
embedding_78 (Embedding)         (None, 1, 8)          168         input_80[0][0]                   
____________________________________________________________________________________________________
embedding_79 (Embedding)         (None, 1, 8)          416         input_81[0][0]                   
____________________________________________________________________________________________________
embedding_80 (Embedding)         (None, 1, 8)          8           input_82[0][0]                   
____________________________________________________________________________________________________
flatten_1 (Flatten)              (None, 32)            0           embedding_1[0][0]                
____________________________________________________________________________________________________
flatten_2 (Flatten)              (None, 30)            0           embedding_2[0][0]                
____________________________________________________________________________________________________
flatten_3 (Flatten)              (None, 28)            0           embedding_3[0][0]                
____________________________________________________________________________________________________
flatten_4 (Flatten)              (None, 26)            0           embedding_4[0][0]                
____________________________________________________________________________________________________
flatten_5 (Flatten)              (None, 24)            0           embedding_5[0][0]                
____________________________________________________________________________________________________
flatten_6 (Flatten)              (None, 22)            0           embedding_6[0][0]                
____________________________________________________________________________________________________
flatten_7 (Flatten)              (None, 20)            0           embedding_7[0][0]                
____________________________________________________________________________________________________
flatten_8 (Flatten)              (None, 18)            0           embedding_8[0][0]                
____________________________________________________________________________________________________
flatten_9 (Flatten)              (None, 16)            0           embedding_9[0][0]                
____________________________________________________________________________________________________
flatten_10 (Flatten)             (None, 14)            0           embedding_10[0][0]               
____________________________________________________________________________________________________
flatten_11 (Flatten)             (None, 12)            0           embedding_11[0][0]               
____________________________________________________________________________________________________
flatten_12 (Flatten)             (None, 10)            0           embedding_12[0][0]               
____________________________________________________________________________________________________
flatten_13 (Flatten)             (None, 8)             0           embedding_13[0][0]               
____________________________________________________________________________________________________
flatten_14 (Flatten)             (None, 6)             0           embedding_14[0][0]               
____________________________________________________________________________________________________
flatten_15 (Flatten)             (None, 4)             0           embedding_15[0][0]               
____________________________________________________________________________________________________
flatten_16 (Flatten)             (None, 2)             0           embedding_16[0][0]               
____________________________________________________________________________________________________
flatten_17 (Flatten)             (None, 2)             0           embedding_17[0][0]               
____________________________________________________________________________________________________
flatten_18 (Flatten)             (None, 2)             0           embedding_18[0][0]               
____________________________________________________________________________________________________
flatten_19 (Flatten)             (None, 2)             0           embedding_19[0][0]               
____________________________________________________________________________________________________
flatten_20 (Flatten)             (None, 2)             0           embedding_20[0][0]               
____________________________________________________________________________________________________
flatten_21 (Flatten)             (None, 2)             0           embedding_21[0][0]               
____________________________________________________________________________________________________
flatten_22 (Flatten)             (None, 2)             0           embedding_22[0][0]               
____________________________________________________________________________________________________
flatten_23 (Flatten)             (None, 2)             0           embedding_23[0][0]               
____________________________________________________________________________________________________
flatten_24 (Flatten)             (None, 2)             0           embedding_24[0][0]               
____________________________________________________________________________________________________
flatten_25 (Flatten)             (None, 8)             0           embedding_25[0][0]               
____________________________________________________________________________________________________
flatten_26 (Flatten)             (None, 8)             0           embedding_26[0][0]               
____________________________________________________________________________________________________
flatten_27 (Flatten)             (None, 8)             0           embedding_27[0][0]               
____________________________________________________________________________________________________
flatten_28 (Flatten)             (None, 8)             0           embedding_28[0][0]               
____________________________________________________________________________________________________
flatten_29 (Flatten)             (None, 8)             0           embedding_29[0][0]               
____________________________________________________________________________________________________
flatten_30 (Flatten)             (None, 8)             0           embedding_30[0][0]               
____________________________________________________________________________________________________
flatten_31 (Flatten)             (None, 8)             0           embedding_31[0][0]               
____________________________________________________________________________________________________
flatten_32 (Flatten)             (None, 8)             0           embedding_32[0][0]               
____________________________________________________________________________________________________
flatten_33 (Flatten)             (None, 8)             0           embedding_33[0][0]               
____________________________________________________________________________________________________
flatten_34 (Flatten)             (None, 8)             0           embedding_34[0][0]               
____________________________________________________________________________________________________
flatten_35 (Flatten)             (None, 8)             0           embedding_35[0][0]               
____________________________________________________________________________________________________
flatten_36 (Flatten)             (None, 8)             0           embedding_36[0][0]               
____________________________________________________________________________________________________
flatten_37 (Flatten)             (None, 8)             0           embedding_37[0][0]               
____________________________________________________________________________________________________
flatten_38 (Flatten)             (None, 8)             0           embedding_38[0][0]               
____________________________________________________________________________________________________
flatten_39 (Flatten)             (None, 8)             0           embedding_39[0][0]               
____________________________________________________________________________________________________
flatten_40 (Flatten)             (None, 8)             0           embedding_40[0][0]               
____________________________________________________________________________________________________
flatten_41 (Flatten)             (None, 8)             0           embedding_41[0][0]               
____________________________________________________________________________________________________
flatten_42 (Flatten)             (None, 8)             0           embedding_42[0][0]               
____________________________________________________________________________________________________
flatten_43 (Flatten)             (None, 8)             0           embedding_43[0][0]               
____________________________________________________________________________________________________
flatten_44 (Flatten)             (None, 8)             0           embedding_44[0][0]               
____________________________________________________________________________________________________
flatten_45 (Flatten)             (None, 8)             0           embedding_45[0][0]               
____________________________________________________________________________________________________
flatten_46 (Flatten)             (None, 8)             0           embedding_46[0][0]               
____________________________________________________________________________________________________
flatten_47 (Flatten)             (None, 8)             0           embedding_47[0][0]               
____________________________________________________________________________________________________
flatten_48 (Flatten)             (None, 8)             0           embedding_48[0][0]               
____________________________________________________________________________________________________
flatten_49 (Flatten)             (None, 8)             0           embedding_49[0][0]               
____________________________________________________________________________________________________
flatten_50 (Flatten)             (None, 8)             0           embedding_50[0][0]               
____________________________________________________________________________________________________
flatten_51 (Flatten)             (None, 8)             0           embedding_51[0][0]               
____________________________________________________________________________________________________
flatten_52 (Flatten)             (None, 8)             0           embedding_52[0][0]               
____________________________________________________________________________________________________
flatten_53 (Flatten)             (None, 8)             0           embedding_53[0][0]               
____________________________________________________________________________________________________
flatten_54 (Flatten)             (None, 8)             0           embedding_54[0][0]               
____________________________________________________________________________________________________
flatten_55 (Flatten)             (None, 8)             0           embedding_55[0][0]               
____________________________________________________________________________________________________
flatten_56 (Flatten)             (None, 8)             0           embedding_56[0][0]               
____________________________________________________________________________________________________
flatten_57 (Flatten)             (None, 8)             0           embedding_57[0][0]               
____________________________________________________________________________________________________
flatten_58 (Flatten)             (None, 8)             0           embedding_58[0][0]               
____________________________________________________________________________________________________
flatten_59 (Flatten)             (None, 8)             0           embedding_59[0][0]               
____________________________________________________________________________________________________
flatten_60 (Flatten)             (None, 8)             0           embedding_60[0][0]               
____________________________________________________________________________________________________
flatten_61 (Flatten)             (None, 8)             0           embedding_61[0][0]               
____________________________________________________________________________________________________
flatten_62 (Flatten)             (None, 8)             0           embedding_62[0][0]               
____________________________________________________________________________________________________
flatten_63 (Flatten)             (None, 8)             0           embedding_63[0][0]               
____________________________________________________________________________________________________
flatten_64 (Flatten)             (None, 8)             0           embedding_64[0][0]               
____________________________________________________________________________________________________
flatten_65 (Flatten)             (None, 8)             0           embedding_65[0][0]               
____________________________________________________________________________________________________
flatten_66 (Flatten)             (None, 8)             0           embedding_66[0][0]               
____________________________________________________________________________________________________
flatten_67 (Flatten)             (None, 8)             0           embedding_67[0][0]               
____________________________________________________________________________________________________
flatten_68 (Flatten)             (None, 8)             0           embedding_68[0][0]               
____________________________________________________________________________________________________
flatten_69 (Flatten)             (None, 8)             0           embedding_69[0][0]               
____________________________________________________________________________________________________
flatten_70 (Flatten)             (None, 8)             0           embedding_70[0][0]               
____________________________________________________________________________________________________
flatten_71 (Flatten)             (None, 8)             0           embedding_71[0][0]               
____________________________________________________________________________________________________
flatten_72 (Flatten)             (None, 8)             0           embedding_72[0][0]               
____________________________________________________________________________________________________
flatten_73 (Flatten)             (None, 8)             0           embedding_73[0][0]               
____________________________________________________________________________________________________
flatten_74 (Flatten)             (None, 8)             0           embedding_74[0][0]               
____________________________________________________________________________________________________
flatten_75 (Flatten)             (None, 8)             0           embedding_75[0][0]               
____________________________________________________________________________________________________
flatten_76 (Flatten)             (None, 8)             0           embedding_76[0][0]               
____________________________________________________________________________________________________
flatten_77 (Flatten)             (None, 8)             0           embedding_77[0][0]               
____________________________________________________________________________________________________
flatten_78 (Flatten)             (None, 8)             0           embedding_78[0][0]               
____________________________________________________________________________________________________
flatten_79 (Flatten)             (None, 8)             0           embedding_79[0][0]               
____________________________________________________________________________________________________
flatten_80 (Flatten)             (None, 8)             0           embedding_80[0][0]               
____________________________________________________________________________________________________
concatenate_1 (Concatenate)      (None, 736)           0           flatten_1[0][0]                  
                                                                   flatten_2[0][0]                  
                                                                   flatten_3[0][0]                  
                                                                   flatten_4[0][0]                  
                                                                   flatten_5[0][0]                  
…
